model.pt (torch, 251391 bytes, 10 tensors)

conv1.weight f4 [6, 3, 5, 5]
-0.095514074 -0.14367864 -0.096545 0.06776604 -0.1379643 0.073614605 -0.064641334 -0.16374609
-0.14612047 0.03490237 0.0906194 0.06466833 -0.045356013 0.05851395 0.006474736 0.03907253
0.028784025 0.14999424 0.0102032265 -0.023221944 0.11721116 0.12321912 0.15375711 0.05827969
-0.0735652 -0.10729566 0.024391811 0.001091594 -0.14592436 0.047349803 -0.10339167 -0.15731172
-0.111345045 -0.045165274 -0.107103646 -0.073851906 -0.06830823 -0.03176231 -0.057108786 -0.013300374
0.026618375 0.08334027 0.16809057 0.10414077 -0.053798992 0.10684464 0.16094811 0.11688148
0.19189508 0.12717529 -0.05851593 -0.0352548 -0.06497531 -0.11179471 -0.0109951105 0.029998815
0.00790917 -0.14078747 -0.05586103 -0.13503778 0.077220015 0.024242258 0.009103526 -0.106392734
-0.062361654 -0.009179044 0.021377506 -0.02896936 -0.04387233 0.117892355 0.10286092 0.06807871
0.052673314 0.14015095 0.08021091 0.03766547 -0.041026544 0.06248189 -0.17429578 -0.019290693
0.10870847 0.14764926 0.12863412 -0.11377469 -0.1428508 0.10666997 -0.03340858 -0.03855701
0.007681897 0.0031258191 -0.040634006 0.0840871 0.1278255 0.07122713 0.065264255 -0.09597308
0.09481282 0.17244725 -0.0006646153 0.14765587 0.16607612 0.06132022 -0.10095327 0.050209414
-0.16194981 0.15055189 0.024600403 -0.011623434 -0.008466227 0.030405262 0.15781586 0.045204837
0.02459746 -0.03924636 -0.09334796 -0.000780002 0.17303917 0.12435126 0.029080866 0.08240271
0.05407767 0.073444314 0.004286532 0.026287138 0.1354751 -0.048406802 0.047979537 -0.10025641
-0.116515264 -0.089002855 0.12746368 -0.07665234 0.0731755 -0.13995647 0.013110118 -0.03179274
0.0182353 0.02529388 0.087706074 -0.014183528 0.009959932 0.15400064 0.09168156 0.005592458
-0.11585257 -0.09009017 0.06648976 0.120999575 0.007537349 0.07464882 -0.07499502 -0.04040461
0.10301626 0.11607933 -0.008632213 0.08873565 -0.07710699 0.011637618 0.0226477 0.042540565
0.07462866 0.103672266 0.024834478 0.0151193915 0.17213929 -0.03522681 -0.11275657 -0.11157346
0.0716516 0.036675178 -0.13426329 -0.05274783 -0.14680055 -0.1796262 -0.07802326 0.044223674
0.106061205 0.13604353 0.07798353 -0.045440335 -0.10005768 0.028007517 -0.063517585 0.05951438
0.17500232 0.03861886 -0.06714949 0.08466034 0.021205673 -0.005772661 0.053518973 0.007840813
-0.13069913 0.05121581 -0.045971837 -0.15563303 -0.086288944 -0.1495108 -0.105740786 -0.047112487
-0.0031358132 -0.016693886 -0.03810376 0.1587625 0.10701142 -0.08380701 0.05057692 0.123134635
0.12612344 0.12130845 0.04690924 0.002383925 -0.021635111 -0.028442271 0.056224607 -0.058768425
0.032639746 0.0017529554 0.024210345 0.002083369 -0.03575391 -0.17678772 0.0006527165 -0.11575567
0.004891653 -0.075315304 0.06639354 0.21268655 0.18781929 0.17137812 0.040752135 -5.5307613e-05
-0.041660964 0.17313302 0.17196082 -0.18472889 0.046252087 -0.087447956 -0.08022377 0.128475
-0.047818854 -0.1935984 -0.115835704 0.04130273 -0.057577897 0.017235965 -0.049573414 -0.104091525
-0.06270547 -0.04817092 0.0513425 -0.05687726 0.15534198 0.07206139 0.16293192 -0.020700186
00000000: e29c c3bd 7e20 13be 63b9 c5bd ecc8 8a3d
00000010: 8346 0dbe 41c3 963d ad62 84bd 0ead 27be
00000020: 9ba0 15be caf5 0e3d aa96 b93d d470 843d
00000030: 3ac7 39bd 53ac 6f3d 062a d43b 840a 203d
00000040: 7acc eb3c 1798 193e 6f2b 273c f23b bebc
00000050: 680c f03d 4e5a fc3d 8172 1d3e afb6 6e3d
00000060: 5aa9 96bd d4bd dbbd 56d1 c73c d113 8f3a
00000070: 326d 15be def1 413d 03bf d3bd 5316 21be
00000080: df08 e4bd 39ff 38bd 2859 dbbd ab3f 97bd
00000090: 2fe5 8bbd 3219 02bd e7ea 69bd d0e9 59bc
000000a0: c70e da3c 4eae aa3d ef1f 2c3e c247 d53d
000000b0: 555c 5cbd 5dd1 da3d 95cf 243e 8f5f ef3d
000000c0: 2580 443e 3d3a 023e 66ae 6fbd 5667 10bd
000000d0: c611 85bd a0f4 e4bd d624 34bc 13c0 f53c
000000e0: 7795 013c 972a 10be 89ce 64bd 5847 0abe
000000f0: 8725 9e3d b397 c63c f526 153c 6fe4 d9bd
00000100: ef6e 7fbd b363 16bc e11f af3c 2751 edbc
00000110: 79b3 33bd 8c71 f13d bfa8 d23d da6c 8b3d
00000120: f9bf 573d bb83 0f3e 9e45 a43d 1c47 1a3d
00000130: 730b 28bd 03ed 7f3d 987a 32be 8407 9ebc
00000140: 8ca2 de3d 5e31 173e aab8 033e b402 e9bd
00000150: 7b47 12be c975 da3d 6fd7 08bd f5ed 1dbd
00000160: 6cb8 fb3b 8bda 4c3b d86f 26bd dc35 ac3d
00000170: b0e4 023e 88df 913d 44a9 853d 898d c4bd
00000180: 392d c23d 0396 303e 9439 2eba 1a33 173e
00000190: dc0f 2a3e e92a 7b3d 97c0 cebd 63a8 4d3d
000001a0: 2cd6 25be 462a 1a3e c986 c93c 3770 3ebc
000001b0: eeb5 0abc 7514 f93c 7b9a 213e b528 393d
000001c0: 9d80 c93c cbc0 20bd 372d bfbd 0c79 4cba
000001d0: 2e31 313e e0ab fe3d ff3a ee3c c1c2 a83d
000001e0: 8c80 5d3d f969 963d 0976 8c3b 2058 d73c
000001f0: fcb9 0a3e 3646 46bd 3186 443d 3c53 cdbd
00000200: 8e9f eebd 2147 b6bd d785 023e e7fb 9cbd
00000210: 09dd 953d c050 0fbe d2cb 563c 1b39 02bd
00000220: 3262 953c 1c35 cf3c 3e9f b33d 0762 68bc
00000230: fc2e 233c 58b2 1d3e 8bc3 bb3d f040 b73b
00000240: 1d44 edbd 3281 b8bd c92b 883d a0ce f73d
00000250: defb f63b 7be1 983d fd96 99bd 4e7f 25bd
00000260: 30fa d23d 00bb ed3d 206e 0dbc 09bb b53d
00000270: 45ea 9dbd b5ab 3e3c ab87 b93c 043f 2e3d
00000280: e9d6 983d 2052 d43d ad71 cb3c 53b7 773c
00000290: 4845 303e fd49 10bd ebec e6bd a080 e4bd
000002a0: 13be 923d b638 163d 517c 09be 1c0e 58bd
000002b0: e252 16be eeef 37be a9ca 9fbd e223 353d
000002c0: 9e36 d93d ff4e 0b3e d4b5 9f3d a51f 3abd
000002d0: 0aeb ccbd 0570 e53c 8215 82bd 5ac5 733d
000002e0: cf33 333e cf2e 1e3d ac85 89bd 6662 ad3d
000002f0: 85b7 ad3c 9728 bdbb b636 5b3d c176 003c
00000300: fed5 05be abc7 513d f74c 3cbd 445e 1fbe
00000310: 42b8 b0bd 5c19 19be a08e d8bd 06f9 40bd
00000320: 3782 4dbb 9ec1 88bc b012 1cbd a392 223e
00000330: ce28 db3d 02a3 abbd bf29 4f3d 032e fc3d
00000340: 8126 013e 9170 f83d e723 403d a03b 1c3b
00000350: 1e3c b1bc c4ff e8bc c64b 663d 29b7 70bd
00000360: 41b1 053d 6cc3 e53a c654 c63c 2289 083b
00000370: b172 12bd d707 35be 101b 2b3a 4f11 edbd
00000380: 294a a03b e93e 9abd 56f9 873d 81ca 593e
00000390: b353 403e bf7d 2f3e b6eb 263d 19fa 67b8
000003a0: b0a4 2abd c849 313e 7f16 303e 9229 3dbe
000003b0: d472 3d3d ea17 b3bd 5c4c a4bd f38e 033e
000003c0: b4dd 43bd a93e 46be 453b edbd 0d2d 293d
000003d0: cdd6 6bbd 7032 8d3c 7e0d 4bbd f02d d5bd
000003e0: ba6b 80bd df4e 45bd 834c 523d 21f8 68bd
000003f0: f811 1f3e ec94 933d a0d7 263e 7093 a9bc

conv1.bias f4 [6]
0.048653062 0.021350771 0.01687033 0.09301431 0.0583239 0.07405248
00000000: 6f48 473d d0e7 ae3c a533 8a3c 497e be3d
00000010: 0be5 6e3d d4a8 973d

conv2.weight f4 [16, 6, 5, 5]
-0.0445552 0.07156533 0.042564534 0.013643997 0.022813044 -0.08306981 -0.0141071435 0.022769095
-0.0737563 -0.11918693 -0.059393693 -0.083853304 0.051531203 -0.059895284 -0.121282816 -0.10016245
-0.118294574 -0.08781831 -0.11785864 -0.0402193 -0.023940695 0.043334164 -0.01823633 0.011185191
-0.061051644 0.025061553 0.022408117 0.0727778 0.002979298 0.051745996 -0.052996352 0.021238375
-0.047477048 -0.015124905 0.052039184 -0.03256638 0.00857197 0.07173953 -0.02050583 -0.06457842
0.019080523 0.07919904 0.08296731 -0.014104346 -0.0046946863 0.06957097 0.027728146 0.09824495
-0.0010981528 -0.01927489 -0.030492945 0.00086261175 -0.09175021 0.053515702 0.066447236 0.0891977
-0.08875802 -0.04510979 -0.034459103 -0.02468375 -0.0017087793 -0.05924342 -0.037849635 -0.11526876
0.045122195 -0.037009902 -0.050422233 -0.04690573 -0.083763406 0.02824097 0.14206077 -0.033185747
-0.030131856 0.02638328 0.06607577 0.14964272 0.107208855 -0.11720449 0.1097104 0.013095386
0.12687272 0.08088526 -0.15330835 -0.032516584 0.111586615 0.027539462 0.03195366 -0.036013346
-0.10721128 0.033256266 0.06956458 0.008920962 -0.17092597 -0.08775048 0.09004943 0.13549694
0.05109283 -0.067289926 -0.042136457 0.15050058 0.0030891306 -0.038013782 0.12836185 0.12365801
0.04631882 -0.07290611 0.0053788614 0.120300874 0.008682558 -0.010306766 -0.04593763 -0.016722996
0.07455785 0.09780739 -0.097584754 -0.004600633 -0.096911184 0.056545213 -0.010632632 -0.07558561
0.04790578 0.011288438 0.14038382 0.009505081 -0.05033366 -0.019908633 0.019277986 0.005296
-0.02086492 -0.019990453 -0.057931915 0.04121237 0.09378937 0.032012507 -0.093581356 0.06959566
0.017420279 0.027688516 0.0030228216 0.009620676 0.04735064 0.10788824 -0.051561598 -0.0691085
-0.012397441 0.10409964 -0.028809933 0.06596914 0.05630098 -0.012018139 0.046095464 -0.02168851
-0.03744718 -0.005302135 0.018966423 0.0022881732 0.018090934 -0.034566056 -0.0069182925 0.11244631
-0.023174431 0.040925607 0.034483258 0.011821386 0.06135907 0.04126809 0.012926345 0.13521425
0.14604664 0.091769814 0.13276173 0.12496693 0.1409916 0.12592055 0.1646837 0.06745261
0.07685432 -0.00036571902 0.08225226 -0.047567386 -0.00042269527 -0.04537148 0.028040363 0.016418744
-0.007568368 0.037768867 -0.027411684 -0.079511955 -0.09594811 -0.069763094 -0.012452656 0.038175743
-0.04352776 -0.059427045 -0.046039436 -0.0043470836 0.07798509 0.019645205 0.021377826 0.039478023
-0.003985156 -0.06766608 0.07672102 0.013600407 0.019962884 -0.022633595 0.046134256 0.11284895
0.09755745 0.021354314 0.0951389 0.11804276 0.06651454 0.10875004 0.09620937 -0.09016196
-0.07608102 -0.12420999 -0.022679823 -0.008791138 0.104909405 -0.015129746 -0.055803925 -0.009297578
-0.14753722 0.06165884 0.03981892 -0.010719058 -0.08543168 -0.037116174 -0.010247888 0.03775615
0.10709972 0.04659466 0.031274606 0.100502126 0.026781715 0.03542622 0.02771374 0.0412763
-0.039181955 0.028786745 0.059984483 0.0068850922 0.07262288 0.053207383 -0.010375 -0.011915344
-0.12946118 -0.08241408 -0.0016506328 -0.06628475 0.03487304 -0.10569653 -0.060103633 0.095733404
00000000: 837f 36bd d890 923d 2658 2e3d 128b 5f3c
00000010: 6ce2 ba3c 8120 aabd a621 67bc 4186 ba3c
00000020: 8b0d 97bd 4718 f4bd cd46 73bd 48bb abbd
00000030: 6212 533d c254 75bd 2063 f8bd f821 cdbd
00000040: 6d44 f2bd 16da b3bd df5f f1bd febc 24bd
00000050: 471f c4bc 2a7f 313d 5b64 95bc 1742 373c
00000060: 4a11 7abd e34d cd3c 3a91 b73c 870c 953d
00000070: 5340 433b 9cf3 533d b412 59bd 1afc ad3c
00000080: 4b77 42bd 73ce 77bc 0a27 553d 5364 05bd
00000090: 7371 0c3c 2dec 923d d8fb a7bc b141 84bd
000000a0: c24e 9c3c 1b33 a23d c4ea a93d ea15 67bc
000000b0: e2d5 99bb 3a7b 8e3d 2326 e33c a634 c93d
000000c0: e5ef 8fba 60e6 9dbc 57cc f9bc e520 623a
000000d0: 89e7 bbbd 4833 5b3d 7d15 883d 49ad b63d
000000e0: c4c6 b5bd 0bc5 38bd fd24 0dbd 9335 cabc
000000f0: 1ef9 dfba 3aa9 72bd 3808 1bbd 0712 ecbd
00000100: 0dd2 383d b297 17bd 8b87 4ebd 3920 40bd
00000110: 268c abbd 9b59 e73c 6178 113e c7ed 07bd
00000120: 15d7 f6bc c021 d83c bc52 873d f13b 193e
00000130: 5190 db3d e808 f0bd d9af e03d 088e 563c
00000140: ecea 013e 2ca7 a53d ddfc 1cbe 1c30 05bd
00000150: 8687 e43d 709a e13c d7e1 023d bb82 13bd
00000160: 9691 dbbd b937 083d e077 8e3d 3a29 123c
00000170: 3807 2fbe 86b6 b3bd d66b b83d b6bf 0a3e
00000180: b746 513d 4dcf 89bd 4797 2cbd d31c 1a3e
00000190: 0373 4a3b 57b4 1bbd 4a71 033e 6940 fd3d
000001a0: ceb8 3d3d cc4f 95bd 2941 b03b 4e60 f63d
000001b0: 4a41 0e3c b6dd 28bc 1929 3cbd aafe 88bc
000001c0: c9b1 983d 3e4f c83d 84da c7bd e8c0 96bb
000001d0: 5f79 c6bd f49b 673d 7e34 2ebc a1cc 9abd
000001e0: da38 443d 24f3 383c c7c0 0f3e 33bb 1b3c
000001f0: ab2a 4ebd 6e17 a3bc deec 9d3c 118a ad3b
00000200: e9ec aabc 05c3 a3bc 044a 6dbd 4dce 283d
00000210: a414 c03d 8c1f 033d 95a7 bfbd 2b88 8e3d
00000220: f9b4 8e3c 07d3 e23c 881a 463b 0aa0 1d3c
00000230: bff2 413d 82f4 dc3d 4132 53bd c288 8dbd
00000240: a31e 4bbc 3132 d53d cf02 ecbc d41a 873d
00000250: db9b 663d bae7 44bc 99ce 3c3d 1aac b1bc
00000260: 3762 19bd 88bd adbb 795f 9b3c 2df5 153b
00000270: 7033 943c 2395 0dbd d8b2 e2bb 404a e63d
00000280: 4ed8 bdbc 9ca1 273d 513e 0d3d 7dae 413c
00000290: a653 7b3d bb08 293d 05c9 533c 9b75 0a3e
000002a0: 408d 153e d0f1 bb3d b1f2 073e a9ee ff3d
000002b0: 1a60 103e 51f1 003e d8a2 283e 9824 8a3d
000002c0: cc65 9d3d fabd bfb9 df73 a83d 05d6 42bd
000002d0: 339d ddb9 72d7 39bd e7b4 e53c 9a80 863c
000002e0: 1300 f8bb 87b3 1a3d 788e e0bc 2ad7 a2bd
000002f0: 7180 c4bd f4df 8ebd 3a06 4cbc 2b5e 1c3d
00000300: 2a4a 32bd c669 73bd d993 3cbd fb71 8ebb
00000310: a6b6 9f3d fbee a03c 8d20 af3c b5b3 213d
00000320: e995 82bb 8494 8abd e91f 9d3d 3ed4 5e3c
00000330: 3489 a33c 176a b9bc 46f7 3c3d 5a1d e73d
00000340: 33cc c73d 3eef ae3c 2fd8 c23d 67c0 f13d
00000350: c638 883d 57b8 de3d 6b09 c53d d5a6 b8bd
00000360: 5ed0 9bbd cf61 febd 09cb b9bc b508 10bc
00000370: beda d63d c1e2 77bc a892 64bd de54 18bc
00000380: ff13 17be fb8d 7c3d 2a19 233d fd9e 2fbc
00000390: cef6 aebd 2107 18bd c2e6 27bc 31a6 1a3d
000003a0: 1957 db3d 0bda 3e3d cd19 003d 0fd4 cd3d
000003b0: 5465 db3c 161b 113d ed07 e33c 5611 293d
000003c0: 427d 20bd 2ed2 eb3c 4ab2 753d 579c e13b
000003d0: 4ebb 943d fcef 593d e7fb 29bc 9338 43bc
000003e0: 7991 04be b7c8 a8bd 0c5a d8ba 4dc0 87bd
000003f0: 08d7 0e3d 6c77 d8bd 3a2f 76bd e00f c43d

conv2.bias f4 [16]
0.0652884 0.05497196 0.010998789 -0.046544276 -0.01737819 0.05254124 0.08733731 -0.041897416
-0.053786445 0.065869495 -0.014435288 0.061738998 -0.0709157 0.08044046 -0.014416945 0.031460095
00000000: edb5 853d 472a 613d 4434 343c 36a5 3ebd
00000010: b55c 8ebc 7c35 573d e7dd b23d a09c 2bbd
00000020: 2d4f 5cbd 96e6 863d fc81 6cbc 08e2 7c3d
00000030: 403c 91bd f8bd a43d 0d35 6cbc 4ddc 003d

fc1.weight f4 [120, 400]
-0.045638163 0.034514986 0.06663717 -0.044445816 -0.062482245 -0.0502551 -0.023545934 0.011357968
-0.010268963 0.057153538 0.02507623 0.008294094 0.056970935 -0.0037141948 0.018884115 -0.0113580935
0.05380892 0.034606937 0.061422672 -0.022459721 -0.011134738 -0.0016388592 0.082730986 0.04293789
-0.015511138 -0.034555655 -0.013037152 -0.037359685 -0.005502114 0.020958096 0.0044447235 -0.025936542
-0.011844163 -0.028868474 -0.028686246 0.041311312 -0.023555866 -0.058274053 -0.011879927 0.034115843
0.042220403 -0.035415545 0.029499914 0.0064622033 0.018378913 -0.0035210855 -0.04064977 -0.027950644
0.0346658 -0.01185364 0.03990885 0.058720563 -0.0001341417 0.031128505 0.043661825 0.034686457
-0.0063134898 -0.017449016 0.006094386 -0.0030550591 0.022250693 -0.02446664 -0.0060642073 -0.055352207
0.00633801 -0.06553463 -0.080043495 -0.06625173 0.020622844 0.031017032 -0.021087132 0.031410478
0.035546 0.007261222 -0.034173843 0.0041554305 0.017917588 0.027337415 0.021528577 -0.03203766
0.016542727 -0.0021965445 -0.04234768 0.020045096 0.0032649324 -0.0062503777 -0.012391403 -0.03622629
-0.01925457 -0.044747323 0.026883641 -0.00019740107 0.030231876 0.025093202 0.040111843 -0.018449567
-0.034558117 -0.039991185 -0.06840088 0.014466618 0.042298142 -0.0038988804 0.024957033 0.010234687
0.0044537154 -0.02537637 0.052292306 0.034437127 0.0060994783 0.0035926518 -0.027761323 -0.009124306
0.0018476412 -0.056587737 -0.013942827 -0.0083646905 -0.045826588 -0.0402894 0.03997021 0.015843006
-0.008267682 0.046714913 0.03049402 0.014065933 -0.017337453 -0.012099562 0.02339227 -0.042030897
-0.023583435 0.0466842 0.06712765 0.017488508 0.06149192 -0.044103198 0.055290993 0.040549364
0.043062877 0.04031731 0.013450867 -0.013617518 0.0038893777 0.055399667 -0.045479733 -0.01762609
0.039007265 0.04320484 -0.019598382 -0.0024424314 -0.033910614 -0.024804838 0.022346314 -0.01457673
0.033403017 -0.046195634 0.0034714174 0.031774055 0.051045604 -0.0313173 -0.034167394 -0.029685915
-0.011118952 0.06705344 -0.048567485 -0.040797804 -0.03990334 0.016101925 0.028930532 -0.021205388
-0.005106362 0.0020394565 -0.054678217 0.032359764 -0.012919766 -0.014354325 0.043456852 0.012194683
0.018213043 0.0024977042 -0.028196031 0.05819901 0.07948027 0.036188636 -0.030053485 0.02170101
0.014883927 -0.05502294 0.03935216 0.010683045 -0.0396688 -0.023481676 0.016864873 0.03405416
-0.018351365 -0.014927168 -0.0027873975 -0.037308827 0.024058392 0.024132324 -0.010090486 -0.00908114
-0.024252897 0.036242772 -0.055113237 -0.011224316 -0.0100251725 0.05582985 0.021678057 0.06083678
-0.014660053 -0.008548875 -0.064726934 0.042679295 -0.017317837 -0.037653044 -0.046694394 -0.038117405
0.002535451 0.0013859923 0.037983302 -0.04196566 -0.024554588 0.025526667 0.0073872334 0.0093746325
0.057119265 0.056637324 -0.0074711153 0.009598227 0.0041490095 -0.054761764 0.003478587 0.05962988
0.011677762 -0.049782805 -0.0120099895 0.012304932 0.052546736 0.07215001 0.042475272 0.04476441
-0.03034582 -0.024059666 -0.025422273 0.009163112 -0.013465788 0.019130897 -0.015423889 -0.011596489
-0.03980192 -0.010856862 0.071808964 -0.028535392 0.028075395 -0.03739425 0.005100219 -0.019413497
00000000: 15ef 3abd 965f 0d3d 1279 883d d10c 36bd
00000010: 62ed 7fbd 4bd8 4dbd 67e3 c0bc c516 3a3c
00000020: 273f 28bc d419 6a3d aa6c cd3c f4e3 073c
00000030: 5b5a 693d d969 73bb dcb2 9a3c 4c17 3abc
00000040: be66 5c3d 01c0 0d3d 5796 7b3d 73fd b7bc
00000050: 7a6e 36bc fdce d6ba dd6e a93d a4df 2f3d
00000060: 6e22 7ebc 3b8a 0dbd c799 55bc 7806 19bd
00000070: 144b b4bb 50b0 ab3c 0ba5 913b df78 d4bc
00000080: 050e 42bc 947d ecbc 6bff eabc 0d36 293d
00000090: 3bf8 c0bc c6b0 6ebd 06a4 42bc 0ebd 0b3d
000000a0: 4def 2c3d e40f 11bd cea9 f13c e4c0 d33b
000000b0: 608f 963c 03c2 66bb 6080 26bd c0f8 e4bc
000000c0: bafd 0d3d c535 42bc 7677 233d f984 703d
000000d0: 63a8 0cb9 3501 ff3c bed6 323d 6313 0e3d
000000e0: 64e1 cebb 3df1 8ebc 6ab3 c73b 6337 48bb
000000f0: 1647 b63c 436e c8bc 42b6 c6bb ffb8 62bd
00000100: 15af cf3b 0537 86bd d8ed a3bd fdae 87bd
00000110: 3df1 a83c 6e17 fe3c ecbe acbc 46a8 003d
00000120: af98 113d 8cef ed3b dff9 0bbd 472a 883b
00000130: e8c7 923c b7f2 df3c b35c b03c ec39 03bd
00000140: 9d84 873c e7f3 0fbb c374 2dbd 9d35 a43c
00000150: 7af8 553b f8cf ccbb 5005 4bbc 0562 14bd
00000160: c3bb 9dbc f848 37bd 153b dc3c 72fd 4eb9
00000170: d7a8 f73c 4290 cd3c 514c 243d 8c23 97bc
00000180: d08c 0dbd cccd 23bd c315 8cbd 6505 6d3c
00000190: d140 2d3d 5c84 7fbb b172 cc3c 63af 273c
000001a0: 79f0 913b 1be2 cfbc 7530 563d f20d 0d3d
000001b0: 22de c73b b272 6b3b b76b e3bc 1d7e 15bc
000001c0: 8d2c f23a 8bc8 67bd 7470 64bc 0e0c 09bc
000001d0: a9b4 3bbd 7f06 25bd ceb7 233d 31c9 813c
000001e0: 2c75 07bc 2358 3f3d 98ce f93c cd74 663c
000001f0: 4607 8ebc 3e3d 46bc 25a1 bf3c 9728 2cbd
00000200: 0c32 c1bc ef37 3f3d 397a 893d 0f44 8f3c
00000210: f4de 7b3d 8ea5 34bd cf78 623d 1717 263d
00000220: b362 303d c323 253d 0661 5c3c 031c 5fbc
00000230: eee4 7e3b c3ea 623d f548 3abd 9764 90bc
00000240: 15c6 1f3d 8ff7 303d c98c a0bc 3311 20bb
00000250: dbe5 0abd 8433 cbbc 9e0f b73c 3dd3 6ebc
00000260: 9ad1 083d a237 3dbd b880 633b 8325 023d
00000270: 3215 513d 9246 00bd 1cf3 0bbd e02f f3bc
00000280: 442c 36bc 5053 893d b3ee 46bd 991b 27bd
00000290: af71 23bd 2fe8 833c b9ff ec3c ecb6 adbc
000002a0: 4553 a7bb 67a8 053b 44f6 5fbd ac8b 043d
000002b0: 6dad 53bc 672e 6bbc d0ff 313d 35cc 473c
000002c0: 8533 953c 86b0 233b 5dfb e6bc 1662 6e3d
000002d0: 8dc6 a23d 893a 143d ba32 f6bc 51c6 b13c
000002e0: b7db 733c bc5f 61bd bb2f 213d f007 2f3c
000002f0: c07b 22bd a55c c0bc 3428 8a3c 607c 0b3d
00000300: 9a55 96bc 1591 74bc c5ac 36bb 24d1 18bd
00000310: 1b16 c53c 27b1 c53c 9152 25bc 10c9 14bc
00000320: 03ae c6bc 4d73 143d 6bbe 61bd 32e6 37bc
00000330: 9f40 24bc d7ad 643d 2e96 b13c fd2f 793d
00000340: b830 70bc 9510 0cbc 8e8f 84bd 7cd0 2e3d
00000350: 23de 8dbc 143a 1abd 9f42 3fbd ff20 1cbd
00000360: cf29 263b 2faa b53a 6194 1b3d 2fe4 2bbd
00000370: b426 c9bc 4d1d d13c 9b10 f23b 0f98 193c
00000380: e4f5 693d 8afc 673d 42d0 f4bb e241 1d3c
00000390: 6af4 873b df4d 60bd 01f9 633b 763e 743d
000003a0: 1554 3f3c 0ee9 4bbd 8cc5 44bc a09a 493c
000003b0: 3f3b 573d 62c3 933d 8dfa 2d3d e35a 373d
000003c0: cc97 f8bc c718 c5bc 5f42 d0bc e120 163c
000003d0: 9c9f 5cbc 66b8 9c3c 7bb4 7cbc 33ff 3dbc
000003e0: 5707 23bd fbe0 31bc 9410 933d 0ec3 e9bc
000003f0: 5ffe e53c b72a 19bd bd1f a73b 0e09 9fbc

fc1.bias f4 [120]
0.031964514 -0.013628015 -0.013735673 0.0009873016 0.03048926 -0.04340496 -0.029616091 0.06934508
0.029542709 0.04845924 0.0040993574 -0.025771499 -0.016906647 0.01982612 0.021046182 0.0262949
-0.023031248 0.024823282 0.050925303 -0.048071194 0.00015632008 0.012159414 0.013327399 0.0010153361
0.030361116 0.054173484 0.0694212 -0.0028296483 -0.02414077 -0.033730518 0.023135573 0.023747215
0.011008126 0.040196907 0.026540287 0.016229061 -0.018727377 0.006452955 0.065484375 0.020725429
0.006435742 -0.01620574 -0.0065045673 0.04804115 -0.043544587 0.07305703 -0.054809034 -0.014097023
-0.024268512 0.010550507 0.05741443 0.0023981084 0.0006504451 0.048602592 0.02623725 0.039405942
0.014630343 -0.06131034 0.037864808 -0.015450681 0.035931103 0.005575544 -0.09314399 0.07544854
-0.03468096 0.001708458 0.017289124 0.07272754 0.039847724 -0.05437225 0.028334131 0.020962179
-0.010695189 0.11241665 0.03465082 0.048250765 0.05382987 0.035292167 0.081924744 -0.016176783
-0.024244808 -0.007936022 0.07232722 0.008335525 -0.015847784 -0.02467788 -0.048679102 -0.03905592
-0.033892095 0.017141402 -0.01714496 0.054712743 0.034897946 -0.0056785713 0.041263733 0.085379
0.048499394 -0.04656147 0.040720135 0.06445607 -0.0012535058 0.021567196 0.064032994 0.026242888
0.021955606 -0.00611955 0.023132324 0.01971643 0.06434122 -0.029394025 0.008821104 -0.019118154
0.08089328 -0.03645822 0.03680402 -0.027365964 0.063473396 0.057677846 0.05921315 -0.027273158
00000000: 39ed 023d 0a48 5fbc 970b 61bc 5868 813a
00000010: 9dc4 f93c 66c9 31bd 729d f2bc cb04 8e3d
00000020: 8d03 f23c 327d 463d e753 863b c01e d3bc
00000030: cf7f 8abc 636a a23c 0b69 ac3c 6768 d73c
00000040: 07ac bcbc 325a cb3c 0d97 503d 4de6 44bd
00000050: dae9 2339 4738 473c 2a5b 5a3c 0715 853a
00000060: e0b7 f83c 04e5 5d3d b42c 8e3d 9f71 39bb
00000070: ddc2 c5bc 0329 0abd d086 bd3c 8589 c23c
00000080: 6d5b 343c 83a5 243d 046b d93c cff2 843c
00000090: 286a 99bc 4f73 d33b ac1c 863d 60c8 a93c
000000a0: ebe2 d23b e6c1 84bc 4424 d5bb ccc6 443d
000000b0: cf5b 32bd ed9e 953d 707f 60bd 33f7 66bc
000000c0: c2ce c6bc 09dc 2c3c 652b 6b3d 9529 1d3b
000000d0: a282 2a3a 8313 473d 80ef d63c 2068 213d
000000e0: 1bb4 6f3c 8d20 7bbd 2118 1b3d da24 7dbc
000000f0: 7e2c 133d 0eb3 b63b 47c2 bebd c484 9a3d
00000100: 9f0d 0ebd 56ee df3a eca1 8d3c 2df2 943d
00000110: 5e37 233d 70b5 5ebd fb1c e83c e0b8 ab3c
00000120: e03a 2fbc b33a e63d 05ee 0d3d 98a2 453d
00000130: b67c 5c3d 858e 103d 29c8 a73d 2c85 84bc
00000140: 0c9d c6bc 1706 02bc 4b20 943d ba91 083c
00000150: 36d3 81bc 4429 cabc bd63 47bd 1af9 1fbd
00000160: 70d2 0abd 206c 8c3c 9673 8cbc 781a 603d
00000170: 26f1 0e3d 4f13 babb 2904 293d 2fdb ae3d
00000180: 4da7 463d 3db7 3ebd 28ca 263d 8b01 843d
00000190: ad4c a4ba b0ad b03c bb23 833d 53fb d63c
000001a0: 3edc b33c 8286 c8bb 0080 bd3c 5a84 a13c
000001b0: 54c5 833d bdcb f0bc 6486 103c ad9d 9cbc
000001c0: 60ab a53d 3755 15bd d0bf 163d 962e e0bc
000001d0: 57fe 813d 9b3f 6c3d 7d89 723d f56b dfbc

fc2.weight f4 [84, 120]
-0.005167499 0.018836511 0.05279412 0.014887979 -0.007274158 0.050443113 0.09876705 -0.017157221
-0.06691214 -0.013928673 -0.049241036 -0.09546252 0.08427905 -0.057580516 -0.044053998 -0.04929309
0.016979285 0.026466338 0.04548218 0.029662862 0.06352051 0.11904905 0.080870226 0.0058243107
0.043114018 -0.01573959 0.007681043 -0.037907213 0.015188597 -0.079230264 0.015190543 -0.05911993
0.07629173 -0.14029619 -0.065759495 -0.03362236 0.10257332 0.058212914 -0.029361254 0.08771636
0.03533902 -0.03465794 0.059843224 0.0035838457 -0.027631769 0.1212477 0.06685338 0.028181296
0.019647123 -0.043531634 0.09333483 -0.04832926 0.10941717 0.08608046 0.002161346 0.056413572
0.15391771 -0.007258567 0.1156231 0.11813652 -0.012902056 -0.16945843 0.03990726 0.07756586
-0.031167792 -0.019715007 0.09639382 0.15398148 0.04539812 0.11576139 -0.079474755 0.014622639
0.020214418 0.033615835 -0.09163256 0.06563793 0.06259028 -0.058928676 0.072355255 0.05332422
-0.050024968 0.06198403 0.056984615 0.04177074 -0.0590862 0.032833386 -0.03706019 0.065353535
0.039912254 -0.039733723 0.07465859 0.049030967 0.07562967 0.013372548 0.13772358 -0.08018007
0.027944967 0.058531217 0.08341641 -0.03725871 -0.114400074 0.09523195 -0.07471642 -0.10924306
-0.04597421 0.08865729 -0.07658991 -0.084511995 0.048102085 0.07036225 -0.04776817 0.011293126
0.0953713 -0.0623839 0.15026058 0.06932952 0.06435939 -0.018862428 0.07253707 0.0481162
0.07295573 -0.03544403 0.026041858 0.048578143 0.03741937 -0.032671846 0.022606017 -0.024620105
-0.041738715 0.028204143 -0.08655916 -0.043288622 -0.056448072 0.0081544295 0.016392667 0.022895053
0.090262726 -0.023554794 0.020844294 -0.022428691 -0.08801461 -0.03759276 -0.08924779 0.0355017
-0.025370412 0.04448746 -0.05711743 -0.004962653 0.05487388 -0.06171506 -0.013509758 0.0038624026
0.06991823 0.017355852 -0.05155388 -0.015141856 0.004242815 0.065687135 -0.010384873 -0.06703118
-0.029876053 -0.07504746 -0.0359657 -0.059254553 0.068160035 0.029393934 -0.055215456 -0.082696855
0.054104052 0.06628344 -0.009338664 -0.061460227 -0.012562674 0.037304923 0.0042457157 0.010019727
0.08149199 -0.051042587 -0.05395686 -0.021635339 0.04619859 0.06940498 0.03616534 -0.0105942935
-0.0692184 0.0669329 -0.010284834 -0.015671529 -0.070535496 -0.0236543 0.08611525 -0.041330196
0.037987124 0.008349424 0.04624456 -0.029558366 -0.081537746 -0.0038302129 -0.04599349 -0.009999834
-0.055938464 -0.029160388 -0.07110863 -0.077259675 -0.045128066 0.07615239 0.04563053 0.022729216
0.01403559 0.011878944 -0.06692146 0.018368118 -0.03502392 0.012884587 -0.017633056 0.053919017
-0.052036583 -0.068128295 -0.026189705 -0.090520486 -0.09124798 -0.04602014 0.047220066 -0.06582455
0.012694097 0.04884278 -0.014400591 -0.0400222 -0.07452426 -0.04590682 -0.01727508 -0.013835795
-0.001175857 -0.041461874 -0.021948218 -0.09166336 0.02295971 -0.08437148 -0.055852737 -0.0029686615
0.0111666545 0.091115 0.03953518 -0.016899467 -0.035877317 -0.012801252 0.05324559 -0.015229858
-0.0815209 -0.07648709 0.07889797 -0.059972282 0.08600107 0.036763012 -0.030128587 -0.034082886
00000000: 2054 a9bb 074f 9a3c a63e 583d b6ec 733c
00000010: 0f5c eebb 709d 4e3d 6146 ca3d 4d8d 8cbc
00000020: 3b09 89bd 1735 64bc f8b0 49bd db81 c3bd
00000030: 7f9a ac3d 8cd9 6bbd f771 34bd 8de7 49bd
00000040: 2418 8b3c efcf d83c 864b 3a3d 88ff f23c
00000050: 0b17 823d fdcf f33d 4a9f a53d dcd9 be3b
00000060: 5398 303d 50f0 80bc 42b1 fb3b 9844 1bbd
00000070: 98d9 783c 7a43 a2bd c1e1 783c bd27 72bd
00000080: d73e 9c3d cea9 0fbe eaac 86bd 9ab7 09bd
00000090: f611 d23d aa70 6e3d 0387 f0bc a3a4 b33d
000000a0: a6bf 103d 7cf5 0dbd 2b1e 753d f4de 6a3b
000000b0: 055c e2bc b750 f83d 6dea 883d 76dc e63c
000000c0: 01f3 a03c 3a4e 32bd 5526 bf3d e7f4 45bd
000000d0: 1c16 e03d f44a b03d 5ea5 0d3b eb11 673d
000000e0: 9b9c 1d3e 46d9 edbb cecb ec3d 8ff1 f13d
000000f0: 2563 53bc 8386 2dbe cc75 233d d9da 9e3d
00000100: 9953 ffbc 5e81 a1bc 206a c53d 52ad 1d3e
00000110: 61f3 393d 4f14 ed3d a9c3 a2bd cb93 6f3c
00000120: b598 a53c c2b0 093d daa9 bbbd 2e6d 863d
00000130: 552f 803d 325f 71bd fe2e 943d 7f6a 5a3d
00000140: fbe6 4cbd f7e2 7d3d b368 693d cc17 2b3d
00000150: 5f04 72bd 4d7c 063d 6dcc 17bd 13d8 853d
00000160: 087b 233d d4bf 22bd 9ae6 983d b2d4 483d
00000170: bae3 9a3d 8818 5b3c 6907 0d3e 7335 a4bd
00000180: d8ec e43c 6ebe 6f3d 39d6 aa3d 979c 18bd
00000190: 964a eabd f808 c33d ec04 99bd d3ba dfbd
000001a0: 744f 3cbd f491 b53d 2cdb 9cbd a014 adbd
000001b0: b106 453d 151a 903d 8ea8 43bd ce06 393c
000001c0: 0752 c33d 4386 7fbd e9dd 193e a3fc 8d3d
000001d0: dbce 833d 6185 9abc 518e 943d 7e15 453d
000001e0: d069 953d c22d 11bd bc55 d53c e0f9 463d
000001f0: 0e45 193d ead2 05bd 4130 b93c 1ab0 c9bc
00000200: 37f6 2abd 600c e73c ee45 b1bd 694f 31bd
00000210: 1836 67bd 289a 053c ea49 863c 688e bb3c
00000220: aadb b83d fcf5 c0bc a7c1 aa3c 60bc b7bc
00000230: 0141 b4bd defa 19bd 8cc7 b6bd 3b6a 113d
00000240: 9cd5 cfbc 7c38 363d f7f3 69bd c09d a2bb
00000250: 6fc3 603d eec8 7cbd 0858 5dbc 5d20 7d3b
00000260: 4a31 8f3d dc2d 8e3c 292a 53bd 8c15 78bc
00000270: 5007 8b3b fa86 863d 5025 2abc a547 89bd
00000280: a0be f4bc 7cb2 99bd c550 13bd e7b4 72bd
00000290: 7d97 8b3d 8ccb f03c 9a29 62bd f85c a9bd
000002a0: 369c 5d3d 9dbf 873d 3201 19bc b8bd 7bbd
000002b0: acd3 4dbc 0ccd 183d a51f 8b3b c829 243c
000002c0: 46e5 a63d 0812 51bd de01 5dbd 983c b1bc
000002d0: bc3a 3d3d 3324 8e3d 1c22 143d b093 2dbc
000002e0: 60c2 8dbd 1e14 893d b881 28bc 9461 80bc
000002f0: ea74 90bd aac6 c1bc 315d b03d da49 29bd
00000300: 6398 1b3d 06cc 083c f06a 3d3d 6324 f2bc
00000310: 43fd a6bd 4f04 7bbb ab63 3cbd 58d6 23bc
00000320: bb1f 65bd c4e1 eebc 67a1 91bd 523a 9ebd
00000330: 35d8 38bd c9f5 9b3d 14e7 3a3d 9f32 ba3c
00000340: 88f5 653c e79f 423c 1e0e 89bd bc78 963c
00000350: 3e75 0fbd e019 533c 3373 90bc 30da 5c3d
00000360: 5024 55bd d986 8bbd cb8b d6bc ce62 b9bd
00000370: 39e0 babd 9d7f 3cbd d469 413d 06cf 86bd
00000380: e7fa 4f3c 5e0f 483d 75f0 6bbc 52ee 23bd
00000390: 2da0 98bd ca08 3cbd 7884 8dbc 88af 62bc
000003a0: 371f 9aba edd3 29bd c0cc b3bc 00ba bbbd
000003b0: 0016 bc3c f4ca acbd d7c5 64bd e08d 42bb
000003c0: 58f4 363c 809a ba3d a4ef 213d c070 8abc
000003d0: 18f4 12bd 58bc 51bc 0c18 5a3d a886 79bc
000003e0: 6ef4 a6bd 43a5 9cbd 4295 a13d 7fa5 75bd
000003f0: 5421 b03d d094 163d 3ad0 f6bc 7f9a 0bbd

fc2.bias f4 [84]
0.038575944 -0.01750501 -0.023437254 0.09383465 -0.066343695 0.03570987 -0.0021664212 0.02102226
-0.052179873 0.08659623 -0.02512427 -0.022870004 0.049723558 0.03940954 0.011785369 -0.047450215
-0.014492248 0.0743324 0.06502225 0.043238003 0.10717851 0.11275544 -0.010553524 0.07161639
0.09094741 0.077774316 -0.031231528 0.071981475 -0.005919766 -0.0009310222 0.048051618 -0.04252083
0.032094866 0.07473305 0.04884365 0.037178926 0.06018176 -0.05334895 -0.004625937 -0.068483554
-0.021607116 -0.009877337 0.02591822 0.10646626 -0.036032494 -0.0012218043 -0.00032978106 0.10751261
-0.056335907 0.056970373 0.10263929 0.013529242 -0.048708048 0.053639237 0.09570619 0.049269397
0.05803195 -0.085957885 -0.046671823 -0.039568145 0.008048129 0.057070084 0.019869499 -0.024472678
0.06992729 0.03218908 0.039566327 0.007161824 -0.0180678 0.018000346 0.050012987 0.0022600982
-0.06128422 -0.014709799 0.0018510154 -0.01709704 -0.06986599 0.070758864 0.045755498 -0.015666816
0.029059943 -0.007864399 0.024301758 0.10681674
00000000: cf01 1e3d ab66 8fbc 7cff bfbc 622c c03d
00000010: 34df 87bd 8344 123d 84fa 0dbb e036 ac3c
00000020: 90ba 55bd 5d59 b13d 6ad1 cdbc e059 bbbc
00000030: eeaa 4b3d e66b 213d 6c17 413c 285b 42bd
00000040: e570 6dbc 963b 983d 632a 853d 551a 313d
00000050: 6880 db3d 53ec e63d b0e8 2cbc 9dab 923d
00000060: a342 ba3d 2448 9f3d 43d9 ffbc 066b 933d
00000070: 99fa c1bb d80f 74ba c6d1 443d 522a 2ebd
00000080: e875 033d a40d 993d 4710 483d ee48 183d
00000090: 2681 763d 6e84 5abd 2c95 97bb 1b41 8cbd
000000a0: 6801 b1bc 8ed4 21bc 7252 d43c fc0a da3d
000000b0: cf96 13bd f324 a0ba 77e6 acb9 922f dc3d
000000c0: 7bc0 66bd c459 693d 8c34 d23d c1a9 5d3c
000000d0: 1782 47bd d1b4 5b3d 9b01 c43d b5ce 493d
000000e0: e9b2 6d3d b00a b0bd f42a 3fbd 3512 22bd
000000f0: 4ddc 033c 52c2 693d 5cc5 a23c ed7a c8bc
00000100: 0a36 8f3d b2d8 033d 4d10 223d bcad ea3b
00000110: ec02 94bc 7675 933c 6bda 4c3d 281e 143b
00000120: 2a05 7bbd 5e01 71bc c59d f23a 170f 8cbc
00000130: e615 8fbd 06ea 903d 1e6a 3b3d b257 80bc
00000140: 1e0f ee3c aed9 00bc 7b14 c73c bcc2 da3d

fc3.weight f4 [10, 84]
-0.1540278 -0.111928895 -0.10865311 -0.06292505 0.028222766 0.009243295 -0.080757156 -0.04362664
-0.058014862 -0.08010446 -0.02755045 0.085062176 0.0011842246 -0.05011061 -0.10483353 0.16095957
0.079904854 0.086032875 0.032127455 0.11166879 -0.08481027 -0.1099449 -0.09988056 0.0008998198
0.0699689 0.05031168 0.11211039 -0.09475403 -0.12727405 -0.015824344 -0.08121944 -0.04874966
0.090728514 -0.06546283 -0.095359646 -0.1643589 -0.0007333038 0.0627756 0.1649451 0.11585612
-0.07742923 -0.057356115 -0.111407906 -0.13193141 -0.03423543 -0.1556143 0.09222634 0.002421879
-0.05856278 -0.030807534 -0.08671783 -0.0008218693 -0.049384434 -0.018320424 0.03162224 0.059392218
0.06331702 -0.09262429 0.08804039 -0.062197197 0.11002823 0.16847408 -0.12529919 0.090076365
0.13140495 -0.105517775 -0.07681572 0.110796064 0.0293574 0.13060209 -0.11824383 -0.07076761
-0.10177529 -0.049990613 0.04639518 0.096068285 -0.15988924 -0.1534207 0.04169042 -0.0073541733
-0.119039156 -0.07814788 0.008776296 -0.09592985 0.014830119 0.090480074 -0.06395874 -0.10632493
-0.09352103 0.07777325 -0.0007682651 -0.039923206 0.11495894 -0.09212356 0.018836532 -0.06782543
0.066511266 0.066158205 0.04797824 -0.030267574 -0.09607479 0.07747059 0.052100517 0.046436813
0.07873542 0.098091595 0.028968073 0.1335634 0.049767006 -0.15422283 -0.093384914 -0.14682245
-0.090042084 0.025992243 0.104541585 -0.096336044 -0.056269035 -0.032281123 0.041984197 -0.05386572
-0.06387405 0.09959624 0.13605528 -0.08020754 -0.029523045 -0.007824897 0.089134224 -0.10339767
0.011825144 -0.119593285 0.105725065 -0.05010655 -0.0012463297 0.0906087 -0.10159985 0.030773195
0.079585955 -0.019201482 -0.011582077 0.10168616 -0.13564423 -0.053209025 0.09186292 0.05129946
-0.07978566 -0.01639382 -0.062350377 -0.101095855 -0.07673791 -0.15351984 -0.047936633 0.12808524
-0.1631118 0.11073327 0.11385794 -0.097490005 0.09136416 0.08763287 0.027212342 -0.10719049
0.029097835 0.0045891446 -0.18914069 0.04027728 0.05302085 0.047108877 0.0894746 -0.10901128
0.13074997 -0.009394209 0.09634908 0.116096914 0.02805067 -0.12819976 0.053430963 -0.112108506
0.030074721 -0.026345387 0.022626068 0.078218676 0.07067142 -0.14924195 -0.09202831 -0.076413624
-0.095494024 0.109778486 -0.077062584 0.0643242 0.040667254 -0.09307379 -0.0250329 -0.006056366
-0.07898964 0.04473786 -0.03208498 -0.10195978 0.07790792 -0.0848198 0.028193891 -0.12776361
-0.09589555 0.09516947 -0.12489668 0.08984103 -0.07946014 -0.17417333 0.015339659 -0.11025537
-0.0025976812 0.15357454 0.057430673 0.0026336438 -0.02492292 -0.037048906 0.094606236 0.09606574
-0.03013988 0.078701876 0.1213226 0.022156844 -0.13256432 -0.09315622 -0.18062049 -0.03142851
0.0015900567 -0.08197976 -0.064390965 -0.08496039 -0.057137 -0.10736682 0.09687164 0.027244674
-0.0470379 -0.0036404964 0.04459116 0.105877556 0.040850822 -0.05273394 0.102289274 -0.018667672
0.1316976 0.09578738 -0.11512838 -0.010341751 -0.09931662 0.119634934 -0.0781932 -0.0034087924
0.14067617 0.07637431 0.106357165 0.06407731 -0.008439766 0.09881599 -0.034996346 -0.037488554
00000000: 77b9 1dbe fa3a e5bd 8685 debd d9de 80bd
00000010: 6e33 e73c 3071 173c 0264 a5bd d9b1 32bd
00000020: fea0 6dbd cf0d a4bd 7bb1 e1bc 1435 ae3d
00000030: fc37 9b3a c840 4dbd f6b2 d6bd 96d2 243e
00000040: 28a5 a33d 0132 b03d 1498 033d 9bb2 e43d
00000050: 02b1 adbd cb2a e1bd 2e8e ccbd e2e1 6b3a
00000060: db4b 8f3d 9f13 4e3d 229a e53d 670e c2bd
00000070: 2154 02be 0ea2 81bc 6156 a6bd b9ad 47bd
00000080: dfcf b93d 6011 86bd eb4b c3bd b34d 28be
00000090: 2f3b 40ba 7e90 803d 5ee7 283e f945 ed3d
000000a0: 3793 9ebd 3fee 6abd d429 e4bd 0719 07be
000000b0: 733a 0cbd 5b59 1fbe 2ae1 bc3d 63b8 1e3b
000000c0: 87df 6fbd 1560 fcbc 1e99 b1bd b772 57ba
000000d0: 5547 4abd b714 96bc 5286 013d 4145 733d
000000e0: 5bac 813d ceb1 bdbd 854e b43d 7dc2 7ebd
000000f0: 7b56 e13d 7884 2c3e 6e4e 00be f579 b83d
00000100: 058f 063e b419 d8bd 8f51 9dbd 0ce9 e23d
00000110: ee7e f03c 8ebc 053e d229 f2bd 9cee 90bd
00000120: 906f d0bd f5c2 4cbd df08 3e3d 73bf c43d
00000130: 01ba 23be 511a 1dbe 93c3 2a3d 47fb f0bb
00000140: cdca f3bd ff0b a0bd 74ca 0f3c df76 c4bd
00000150: 07fa 723c 9e4d b93d cdfc 82bd e3c0 d9bd
00000160: f487 bfbd 9547 9f3d 6665 49ba 8486 23bd
00000170: 986f eb3d 47ab bcbd 124f 9a3c 0fe8 8abd
00000180: 0f37 883d f47d 873d d584 443d b4f3 f7bc
00000190: dcc2 c4bd e7a8 9e3d 5a67 553d 8734 3e3d
000001a0: 0940 a13d 3fe4 c83d 744e ed3c d8c4 083e
000001b0: 7dd8 4b3d 97ec 1dbe 9740 bfbd a058 16be
000001c0: fc67 b8bd afed d43c e619 d63d d54b c5bd
000001d0: 5c7a 66bd 3639 04bd 9ff7 2b3d 4da2 5cbd
000001e0: 66d0 82bd 1df9 cb3d 1352 0b3e da43 a4bd
000001f0: 50da f1bc ff33 00bc 018c b63d 28c2 d3bd
00000200: 40be 413c 53ed f4bd 6286 d83d 873c 4dbd
00000210: e35b a3ba 0e91 b93d 9513 d0bd 1118 fc3c
00000220: f6fd a23d 6d4c 9dbc c0c2 3dbc d540 d03d
00000230: 52e6 0abe b5f1 59bd a022 bc3d 621f 523d
00000240: aa66 a3bd 554c 86bc 1c63 7fbd 580b cfbd
00000250: c428 9dbd 4e34 1dbe 3459 44bd c728 033e
00000260: c806 27be 20c8 e23d 5a2e e93d d7a8 c7bd
00000270: 221d bb3d dd78 b33d 6bec de3c b086 dbbd
00000280: 955e ee3c 8960 963b 19ae 41be caf9 243d
00000290: 642c 593d 3df5 403d 763e b73d 4e41 dfbd
000002a0: 52e3 053e 2bea 19bc ab52 c53d 38c4 ed3d
000002b0: 85ca e53c cc46 03be 6dda 5a3d 2599 e5bd
000002c0: 435f f63c 48d2 d7bc 4e5a b93c 1d31 a03d
000002d0: 2dbc 903d e2d2 18be 5779 bcbd bf7e 9cbd
000002e0: 5f92 c3bd 8bd3 e03d fdd2 9dbd 68bc 833d
000002f0: b592 263d 799d bebd cc11 cdbc 7b74 c6bb
00000300: 52c5 a1bd 0c3f 373d 8a6b 03bd 4ad0 d0bd
00000310: 308e 9f3d 01b6 adbd e0f6 e63c 77d4 02be
00000320: e364 c4bd 36e8 c23d d5c9 ffbd 93fe b73d
00000330: ffbb a2bd 7e5a 32be 3153 7b3c 91cd e1bd
00000340: dc3d 2abb a542 1d3e 6d3c 6b3d 3699 2c3b
00000350: 272b ccbc 98c0 17bd eac0 c13d 1dbe c43d
00000360: e9e7 f6bc 732e a13d fc77 f83d 4582 b53c
00000370: f1be 07be b0c8 bebd 94f4 38be 2ebb 00bd
00000380: 7369 d03a 01e5 a7bd 69df 83bd b7ff adbd
00000390: 7d08 6abd 23e3 dbbd a364 c63d 3930 df3c
000003a0: d0aa 40bd 6595 6ebb 38a5 363d 55d6 d83d
000003b0: 3153 273d 8bff 57bd 0a7d d13d f2ec 98bc
000003c0: bcdb 063e 2d2c c43d 6ec8 ebbd 7370 29bc
000003d0: 8366 cbbd 2903 f53d c223 a0bd 0c66 5fbb
000003e0: 6a0d 103e 226a 9c3d c9d1 d93d f73a 833d
000003f0: f246 0abc 0a60 ca3d 5458 0fbd 998d 19bd

fc3.bias f4 [10]
0.0757346 -0.020265836 0.05387867 -0.075086124 0.025094345 -0.004499609 0.087737106 -0.008434481
0.014321066 0.04386893
00000000: be1a 9b3d 8a04 a6bc e1af 5c3d c1c6 99bd
00000010: a892 cd3c 7571 93bb 83af b33d c730 0abc
00000020: e8a2 6a3c e8af 333d
